I'm echoing to stdout
I'm echoing to stderr
My JobID is 55035311
I have 4 CPUs on node r108u25n01
Using backend: pytorch
WARNING:root:The OGB package is out of date. Your version is 1.2.3, while the latest version is 1.3.6.
GNN(
  (atom_encoder): AtomEncoder(
    (atom_embedding_list): ModuleList(
      (0): Embedding(119, 100)
      (1): Embedding(4, 100)
      (2): Embedding(12, 100)
      (3): Embedding(12, 100)
      (4): Embedding(10, 100)
      (5): Embedding(6, 100)
      (6): Embedding(6, 100)
      (7): Embedding(2, 100)
      (8): Embedding(2, 100)
    )
  )
  (bond_encoder): BondEncoder(
    (bond_embedding_list): ModuleList(
      (0): Embedding(5, 100)
      (1): Embedding(6, 100)
      (2): Embedding(2, 100)
    )
  )
  (layers): ModuleList(
    (0): SpecLayer(
      (batchnorm_h): BatchNorm1d(100, eps=1e-05, momentum=0.1, affine=True, track_running_stats=True)
      (dropout): Dropout(p=0.5, inplace=False)
    )
    (1): SpecLayer(
      (batchnorm_h): BatchNorm1d(100, eps=1e-05, momentum=0.1, affine=True, track_running_stats=True)
      (dropout): Dropout(p=0.5, inplace=False)
    )
    (2): SpecLayer(
      (batchnorm_h): BatchNorm1d(100, eps=1e-05, momentum=0.1, affine=True, track_running_stats=True)
      (dropout): Dropout(p=0.5, inplace=False)
    )
    (3): SpecLayer(
      (batchnorm_h): BatchNorm1d(100, eps=1e-05, momentum=0.1, affine=True, track_running_stats=True)
      (dropout): Dropout(p=0.5, inplace=False)
    )
    (4): SpecLayer(
      (batchnorm_h): BatchNorm1d(100, eps=1e-05, momentum=0.1, affine=True, track_running_stats=True)
      (dropout): Dropout(p=0.5, inplace=False)
    )
  )
  (graph_pred_linear): MLPReadout(
    (FC_layers): ModuleList(
      (0): Linear(in_features=100, out_features=50, bias=True)
      (1): Linear(in_features=50, out_features=25, bias=True)
      (2): Linear(in_features=25, out_features=1, bias=True)
    )
  )
)
Total parameters: 783451
=====Epoch 1
Training...
Iteration:   0%|          | 0/1029 [00:00<?, ?it/s]Iteration:   0%|          | 1/1029 [00:00<04:17,  3.99it/s]Iteration:   0%|          | 2/1029 [00:00<04:21,  3.93it/s]Iteration:   0%|          | 3/1029 [00:00<04:17,  3.99it/s]Iteration:   0%|          | 4/1029 [00:01<04:17,  3.98it/s]It
…
