…
/home/bsw38/.conda/envs/benchmark_gnn_2/lib/python3.7/site-packages/torch/cuda/__init__.py:125: UserWarning: 
NVIDIA A100-PCIE-40GB with CUDA capability sm_80 is not compatible with the current PyTorch installation.
The current PyTorch install supports CUDA capabilities sm_37 sm_50 sm_60 sm_61 sm_70 sm_75 compute_37.
If you want to use the NVIDIA A100-PCIE-40GB GPU with PyTorch, please check the instructions at https://pytorch.org/get-started/locally/

  warnings.warn(incompatible_device_warn.format(device_name, capability, " ".join(arch_list), device_name))
GNN(
  (atom_encoder): AtomEncoder(
    (atom_embedding_list): ModuleList(
      (0): Embedding(119, 300)
      (1): Embedding(4, 300)
      (2): Embedding(12, 300)
      (3): Embedding(12, 300)
      (4): Embedding(10, 300)
      (5): Embedding(6, 300)
      (6): Embedding(6, 300)
      (7): Embedding(2, 300)
      (8): Embedding(2, 300)
    )
  )
  (bond_encoder): BondEncoder(
    (bond_embedding_list): ModuleList(
      (0): Embedding(5, 300)
      (1): Embedding(6, 300)
      (2): Embedding(2, 300)
    )
  )
  (layers): ModuleList(
    (0): ChebLayer(
      (batchnorm_h): BatchNorm1d(300, eps=1e-05, momentum=0.1, affine=True, track_running_stats=True)
      (dropout): Dropout(p=0.5, inplace=False)
      (linear): Linear(in_features=900, out_features=300, bias=True)
    )
    (1): ChebLayer(
      (batchnorm_h): BatchNorm1d(300, eps=1e-05, momentum=0.1, affine=True, track_running_stats=True)
      (dropout): Dropout(p=0.5, inplace=False)
      (linear): Linear(in_features=900, out_features=300, bias=True)
    )
    (2): ChebLayer(
      (batchnorm_h): BatchNorm1d(300, eps=1e-05, momentum=0.1, affine=True, track_running_stats=True)
      (dropout): Dropout(p=0.5, inplace=False)
      (linear): Linear(in_features=900, out_features=300, bias=True)
    )
    (3): ChebLayer(
      (batchnorm_h): BatchNorm1d(300, eps=1e-05, momentum=0.1, affine=True, track_running_stats=True)
      (dropout): Dropout(p=0.5, inplace=False)
      (linear): Linear(in_features=900, out_features=300, bias=True)
    )
    (4): ChebLayer(
      (batchnorm_h): BatchNorm1d(300, eps=1e-05, momentum=0.1, affine=True, track_running_stats=True)
      (dropout): Dropout(p=0.5, inplace=False)
      (linear): Linear(in_features=900, out_features=300, bias=True)
    )
  )
  (graph_pred_linear): MLPReadout(
    (FC_layers): ModuleList(
      (0): Linear(in_features=300, out_features=150, bias=True)
      (1): Linear(in_features=150, out_features=75, bias=True)
      (2): Linear(in_features=75, out_features=1, bias=True)
    )
  )
)
Total parameters: 1466851
=====Epoch 1
Training...
Iteration:   0%|          | 0/1029 [00:00<?, ?it/s]Iteration:   0%|          | 0/1029 [00:00<?, ?it/s]
Traceback (most recent call last):
  File "main_dgl.py", line 180, in <module>
    main()
  File "main_dgl.py", line 136, in main
    train(model, device, train_loader, optimizer, dataset.task_type)
…
