…

I'm echoing to stderr
My JobID is 55197202
I have 4 CPUs on node r108u25n01
Using backend: pytorch
WARNING:root:The OGB package is out of date. Your version is 1.2.3, while the latest version is 1.3.6.
{'device': 0, 'gnn': 'Spec_filters', 'dropout': 0.75, 'num_layer': 1, 'emb_dim': 300, 'batch_size': 32, 'epochs': 100, 'lr': 0.001, 'num_workers': 0, 'dataset': 'ogbg-molhiv', 'filename': '../SpecFiltTestMolHIV', 'num_eigs': 15, 'hidden_dim': 25, 'filter_grouping': 'features', 'residual': False, 'biases': False}
GNN(
  (atom_encoder): AtomEncoder(
    (atom_embedding_list): ModuleList(
      (0): Embedding(119, 300)
      (1): Embedding(4, 300)
      (2): Embedding(12, 300)
      (3): Embedding(12, 300)
      (4): Embedding(10, 300)
      (5): Embedding(6, 300)
      (6): Embedding(6, 300)
      (7): Embedding(2, 300)
      (8): Embedding(2, 300)
    )
  )
  (bond_encoder): BondEncoder(
    (bond_embedding_list): ModuleList(
      (0): Embedding(5, 300)
      (1): Embedding(6, 300)
      (2): Embedding(2, 300)
    )
  )
  (layers): ModuleList(
    (0): SpecLayer(
      (batchnorm_h): BatchNorm1d(300, eps=1e-05, momentum=0.1, affine=True, track_running_stats=True)
      (dropout): Dropout(p=0.75, inplace=False)
    )
  )
  (graph_pred_linear): MLPReadout(
    (FC_layers): ModuleList(
      (0): Linear(in_features=300, out_features=150, bias=True)
      (1): Linear(in_features=150, out_features=75, bias=True)
      (2): Linear(in_features=75, out_features=1, bias=True)
    )
  )
)
Total parameters: 337951
=====Epoch 1
Training...
Iteration:   0%|          | 0/1029 [00:00<?, ?it/s]Iteration:   0%|          | 1/1029 [00:00<01:52,  9.15it/s]Iteration:   0%|          | 3/1029 [00:00<01:46,  9.64it/s]Iteration:   0%|          | 5/1029 [00:00<01:42, 10.02it/s]Iteration:   1%|          | 7/1029 [00:00<01:38, 10.42it/s]It
…
